modelo_regresion.pt (torch, 9069 bytes, 2 tensors)

kernel f4 [32, 2]
00000000: e6f1 943e 2eb9 a3be 2852 cdbd 4efd 8fbe
00000010: 74ec 593e ba9d b93e b311 983e 62c2 59be
00000020: 15a0 17be 1ab7 cc3d 80aa b13e 4c75 93bd
00000030: ae1a 67be 5d88 9f3e 32f0 5a3e 4622 5fbd
00000040: 4117 083e 9229 12be 6775 a33e 08bc 8f3d
00000050: 0187 2b3e b23b 763d fe23 2d3e 05c5 803e
00000060: 06ff 0e3e d0da 033d f8ba 8abe b079 afbd
00000070: 2d3c 12be afce 16be 2b62 02bd 294e 8cbe
00000080: 60e0 0abe 5f66 cebe 88ae 27be 0bc5 a73e
00000090: 94e0 2fbe 77d3 9b3e bb2b ff3b 072a 4cbe
000000a0: e70b a73e 4e10 1f3e adcb adbe df55 34bd
000000b0: cf22 0e3d 06aa 62bd 514c a0be 762a a0bc
000000c0: ac30 cdbe cdb1 acbe 7ad3 f7bd a396 acbe
000000d0: aaa7 193e dffe 983d 5eff ba3e e6c6 98bd
000000e0: d627 0bbe 4b10 b63e 18f3 053d 8070 4a3c
000000f0: 675f 2f3d c3ce b53e fb5c 83be a06f 733d
0.29090804 -0.31977218 -0.10025436 -0.28122944 0.21281606 0.36253148 0.29701003 -0.21265557
-0.1480716 0.09995861 0.34700394 -0.07200107 -0.22568771 0.31158724 0.2138069 -0.054476045
0.1329012 -0.1427367 0.31925508 0.07018286 0.16750719 0.060115524 0.16908261 0.25150314
0.13964471 0.032191098 -0.2709577 -0.08568132 -0.14280768 -0.14727281 -0.0318319 -0.2740338
-0.13562155 -0.40312478 -0.16375172 0.3276752 -0.17175514 0.30434772 0.0077871955 -0.19937907
0.32626268 0.15533563 -0.33944455 -0.044027206 0.034701165 -0.05533793 -0.31308225 -0.019551497
-0.40076196 -0.337294 -0.12100883 -0.33708677 0.15005365 0.07470488 0.36522955 -0.07459812
-0.13589415 0.35559306 0.032702535 0.012355924 0.042815592 0.3550931 -0.25656876 0.059432626

bias f4 [2]
00000000: 8e5a a4bb 1feb 163c
-0.005015678 0.009211331
